models/shakespeare.pth (torch, 935221 bytes, 110 tensors)

token_embedding_table.weight f4 [64, 64]
0	0x3e6799be	0.22617242
1	0xbcb6d59e	-0.022318657
2	0xbece28d5	-0.40265527
3	0xbf776e89	-0.9665304
4	0x3f233c97	0.6376433
5	0xbb6bedfc	-0.0036000004
6	0x3f634bb8	0.8878741
7	0x3d69c631	0.057073776
8	0x3e9ebefe	0.3100509
9	0x3f8b4996	1.0881832
10	0xbf9b38a1	-1.2126657
11	0xbedeffaa	-0.4355443
12	0x3e93032f	0.28713366
13	0xbe3c4a97	-0.18387829
14	0xbf4ecb1b	-0.80778664
15	0x3fae3377	1.3609456
16	0x3fa28efb	1.2699884
17	0x3d844c77	0.06459897
18	0x3e89501c	0.2681893
19	0x3f7e7df0	0.99410915
20	0xbfeb6f0d	-1.8393265
21	0x3ed06f64	0.40709984
22	0x3fc1e579	1.5148154
23	0x3ed65a2f	0.4186568
24	0x3aa7d64e	0.0012804957
25	0xbfb82670	-1.438673
26	0xbfac6645	-1.346871
27	0xbec96ea3	-0.39342222
28	0x3ec9d70a	0.39421874
29	0xbf2587b3	-0.64660186
30	0x3fb21d95	1.3915278
31	0x4026d03a	2.6064591
32	0xbf31ab93	-0.69402426
33	0xbeb761db	-0.35816845
34	0x3f82aca3	1.0208935
35	0x3c0e2469	0.008675673
36	0x3e34e0a5	0.1766382
37	0x3f913aa0	1.1346016
38	0xbf819e67	-1.0126466
39	0xbeabfe58	-0.33592486
40	0xbefc31bd	-0.49256697
41	0xbf680feb	-0.9064929
42	0x3ed8acd6	0.42319363
43	0xbfb12209	-1.3838512
44	0xbf93a6f6	-1.1535327
45	0x3f066a54	0.52505994
46	0xbec7f1c2	-0.39051634
47	0xbf2e3aea	-0.68058646
48	0x3fb143e1	1.384884
49	0xbf40d5e2	-0.7532636
50	0x3f9ea8f7	1.2395314
51	0xbe80fadd	-0.25191393
52	0xbfbb34ed	-1.4625527
53	0x3ffeef27	1.9916734
54	0x4032e4d0	2.7952156
55	0xbfe74cf5	-1.807036
56	0x3fb1c15c	1.3887134
57	0xbfbccf4f	-1.4750766
58	0x3f3b79d0	0.73232746
59	0xbe1bab98	-0.15202177
60	0x3f305f7b	0.6889569
61	0x3fc7ea49	1.5618373
62	0x3fbdf142	1.4839251
63	0xbeb43dfb	-0.35203537
64	0xbef8b590	-0.4857602
65	0x3ee931a7	0.45545694
66	0x3e40f11a	0.18841973
67	0xbe4c9cd4	-0.199817
68	0xbf69433c	-0.91118217
69	0xbd586815	-0.052833635
70	0xbf40edab	-0.7536265
71	0xbf2f211e	-0.6840991
72	0x3febc5db	1.8419756
73	0xbf52c409	-0.82330376
74	0x3e0e845e	0.13917682
75	0x3e24e45b	0.16102736
76	0xbfc2849b	-1.5196718
77	0x3ea8b3ed	0.32949772
78	0xbeadfe91	-0.3398328
79	0x3ea85610	0.3287816
80	0x401d308a	2.4560876
81	0xbfcf8f2a	-1.6215565
82	0x3f11fda5	0.57027656
83	0x3f5b5a19	0.85684353
84	0xbfd6cbb7	-1.6780919
85	0xbf822fab	-1.0170797
86	0x3f39a600	0.7251892
87	0x3db91924	0.09037998
88	0x3f0a60cf	0.5405397
89	0xbd81dd0f	-0.06340992
90	0x3f20f50e	0.62873924
91	0xbf28ff41	-0.66014487
92	0x3e58cb94	0.21171409
93	0xbf23c34c	-0.63969874
94	0xbf0d10bd	-0.55103666
95	0xbeee0bde	-0.4649343
96	0xbf9c744c	-1.2222991
97	0xbf79df4e	-0.9760636
98	0xbe3c8f8d	-0.18414135
99	0x3f77eeb5	0.96848613
100	0x3a01b21a	0.00049474987
101	0xbf0ca343	-0.5493662
102	0xbe1ff194	-0.15619498
103	0xbf1a4d2e	-0.60274017
104	0x3ed6490d	0.41852608
105	0xbe29eb09	-0.16593565
106	0x3e2e87ea	0.17044035
107	0x3f9ef2dc	1.2417865
108	0x3f067a5f	0.52530473
109	0x402d80f0	2.7109947
110	0xbf07f461	-0.5310727
111	0xbfbd8cbb	-1.4808573
112	0x3da878f2	0.082261935
113	0xbf36d81a	-0.71423495
114	0x3f98a598	1.1925535
115	0xc000f91e	-2.015205
116	0x3b1eec67	0.0024249793
117	0x3f4e93de	0.8069438
118	0xbfe29f19	-1.7704803
119	0x3f6d770c	0.92759776
120	0x3fc59318	1.5435514
121	0x3f314e83	0.69260424
122	0x3f0a8ef3	0.54124373
123	0xbf84085a	-1.0315049
124	0xbf1ba31c	-0.6079576
125	0x3d0482cc	0.0323513
126	0xbf8fcaed	-1.1233803
127	0xbf81aa0b	-1.0130018
128	0xc0034f37	-2.05171
129	0x3fdd97a7	1.7311906
130	0x3faad037	1.3344792
131	0xbed62e1d	-0.41832057
132	0x3fab74a4	1.3394971
133	0x3fd1cb95	1.6390253
134	0xbdeba128	-0.115053475
135	0xbfd33c53	-1.6502784
136	0xbdab1747	-0.08354049
137	0x3dc254bc	0.09488818
138	0x3f7f9b34	0.99846196
139	0x3f3d63f0	0.7398062
140	0x3eb07205	0.3446199
141	0xbf2d462b	-0.6768519
142	0x3f23df65	0.6401275
143	0x3f3fdd3f	0.7494697
144	0x4008cab5	2.1373723
145	0x3f8062c5	1.0030142
146	0xbfc6d399	-1.5533324
147	0xbebe749e	-0.37198347
148	0xbe0eb751	-0.13937117
149	0xbe8c4079	-0.2739294
150	0xbf1c3540	-0.61018753
151	0x3f7f6e2c	0.99777484
152	0xbf850c29	-1.0394336
153	0x3e0d2e2f	0.13787149
154	0x3f8f0152	1.1172278
155	0xbe83ab4d	-0.2571663
156	0xbf6b65bf	-0.9195213
157	0xbf06dfc5	-0.52685195
158	0x3fc4f835	1.5388247
159	0xbf419638	-0.7561984
160	0xbf65e757	-0.8980612
161	0x3d87db67	0.066336446
162	0x3c90de03	0.017683988
163	0x400b8dc8	2.1805286
164	0xc01fd10e	-2.4971347
165	0x3eeef1f3	0.46668968
166	0xbf56f3ae	-0.83965576
167	0xbe5a179f	-0.21298073
168	0x3d5e07a4	0.054206505
169	0x3fed0d9b	1.8519777
170	0xbdadb339	-0.0848145
171	0xbde54e86	-0.11196618
172	0xbfa89500	-1.3170471
173	0xbe169af6	-0.1470755
174	0xbfd565b6	-1.6671665
175	0xbf9cd054	-1.2251077
176	0xbeb34a0a	-0.35017425
177	0xbf8b8540	-1.090004
178	0x3e6c8173	0.23096256
179	0x3e82cd27	0.25547144
180	0x3f4fc210	0.8115549
181	0x3f494b63	0.78630656
182	0xbfcb86eb	-1.5900549
183	0x3faa3d0a	1.3299878
184	0x3f508b7e	0.8146285
185	0x3f820243	1.015694
186	0x3f0dd51d	0.5540331
187	0xbf97ede7	-1.1869477
188	0xbf4013f9	-0.75030476
189	0x3ffb8969	1.9651309
190	0x3ee7a060	0.45239544
191	0x3f9c8c7b	1.2230371
192	0x3e72ae14	0.23699218
193	0xbe64da0f	-0.22348808
194	0x3fe80cba	1.8128884
195	0x3fab423e	1.337959
196	0x3f7231bc	0.9460714
197	0xbf301e4c	-0.6879623
198	0xbef52c6e	-0.4788546
199	0x3ef1b176	0.47205704
200	0x3df80666	0.121105954
201	0xbfda26db	-1.7043108
202	0x3f92932b	1.1451162
203	0x3f0cb432	0.54962456
204	0xbfa77491	-1.3082448
205	0xbf765c4e	-0.96234596
206	0xbda78fd6	-0.081817314
207	0x3bc51921	0.0060149585
208	0x3e3e47ad	0.1858203
209	0xbf47a52e	-0.7798642
210	0xbe990d05	-0.29892746
211	0xbea5f9ff	-0.32417294
212	0x3f0ec02f	0.55762
213	0x3f226a76	0.63443696
214	0x3f93eab3	1.1556
215	0x3f2a6514	0.6656048
216	0x3f004bee	0.5011586
217	0x3f4fad81	0.8112412
218	0xbe8de750	-0.2771554
219	0xbf1a9f71	-0.6039954
220	0xbf14270e	-0.5787209
221	0x3e9a7ee2	0.3017493
222	0xbf17587f	-0.5911941
223	0xbec64945	-0.38727775
224	0xbed257e1	-0.4108267
225	0xbdb91dc1	-0.09038878
226	0x3d7ce5d4	0.06174262
227	0xbe106117	-0.14099537
228	0xbd1bd610	-0.038045943
229	0x3f2cb738	0.6746707
230	0xbdcd89e3	-0.100360654
231	0xbeeaf411	-0.45889333
232	0x3f6157c8	0.8802457
233	0xbfc24cec	-1.5179725
234	0x3f2d0f93	0.6760189
235	0xbfdaac17	-1.7083768
236	0xbf848cf0	-1.0355511
237	0x3e44996d	0.19199152
238	0xbefabc00	-0.48971558
239	0xbea1f402	-0.31631476
240	0x3fb446aa	1.4084065
241	0x3d85ba48	0.06529671
242	0xbf329e17	-0.69772476
243	0xbf94960b	-1.160829
244	0x3ee4d2ff	0.44692227
245	0xbea3d770	-0.32000303
246	0xbc1049df	-0.008806675
247	0xbf5e9eae	-0.86960876
248	0xbe5332f1	-0.20624901
249	0x3e3e41be	0.18579766
250	0xbf823248	-1.0171595
251	0xbf979283	-1.1841587
252	0x3f7dccb8	0.991405
253	0xbfeb0154	-1.835978
254	0xbf19e626	-0.60116804
255	0x3f8bf0d3	1.0932869

position_embedding_table.weight f4 [32, 64]
0	0x3eb15420	0.34634495
1	0xbe930136	-0.2871186
2	0xbdb86c15	-0.0900499
3	0xbe6ab9ec	-0.22922486
4	0x3e62403d	0.22094817
5	0x3f169c8e	0.58832633
6	0xbf0dca02	-0.55386364
7	0xbe334683	-0.17507367
8	0xbf316df3	-0.69308394
9	0xbf71fbae	-0.9452466
10	0x3f9d23ac	1.2276511
11	0xbe8867e3	-0.2664176
12	0x3ef3ff38	0.47655654
13	0xc002162e	-2.0326037
14	0x3f1ee939	0.6207462
15	0xbf336a3e	-0.7008399
16	0xbf0b3a91	-0.5438624
17	0x3ff01bf8	1.8758535
18	0xbf0f1283	-0.5588762
19	0xbddbbdcd	-0.10729561
20	0x3fa43d5c	1.2831225
21	0x3eaf41c2	0.34229857
22	0x3ca78186	0.020447504
23	0xbfc9c91e	-1.5764501
24	0xbf5fc715	-0.8741315
25	0x3fbb1fca	1.4619076
26	0x3e6d167a	0.23153105
27	0xbf145799	-0.57946163
28	0x3f9784b4	1.1837373
29	0xbf8fa1e3	-1.1221279
30	0x3e892038	0.26782393
31	0xbe9d5ecd	-0.3073639
32	0xbf62c3ae	-0.88579834
33	0xbb22543c	-0.0024769446
34	0xbfb29fd2	-1.3955023
35	0xbf318f35	-0.6935914
36	0x3e37ecd4	0.17961437
37	0x3feb42a4	1.8379712
38	0x3fa06d95	1.2533442
39	0x3f27e7bc	0.65587974
40	0x3edd7efa	0.43260938
41	0xbef6b1b9	-0.48182467
42	0x3f929517	1.1451749
43	0x3e7ffb4d	0.24998207
44	0xbfde534a	-1.7369168
45	0x4006d2f3	2.1066253
46	0x3f70a695	0.94004184
47	0x3ce57ae4	0.0280127
48	0xbdf81325	-0.121130265
49	0x3f94e538	1.1632452
50	0x3f8600d4	1.0469003
51	0x3f0a8791	0.5411311
52	0xc043315c	-3.0498877
53	0xbfbb852d	-1.4650017
54	0xbf190cb8	-0.5978503
55	0xc00078e9	-2.0073798
56	0x3eba642c	0.3640455
57	0x3f8b0109	1.0859691
58	0x3f720fce	0.94555366
59	0xbf5c7c83	-0.8612749
60	0x3d91feb1	0.07128657
61	0x3fda630f	1.706148
62	0x3e1fd877	0.15609919
63	0x3f1c0978	0.6095195
64	0xbfb8bc92	-1.4432547
65	0xbebb6a77	-0.36604664
66	0xc00a353f	-2.1595
67	0xbfa6c082	-1.3027499
68	0xbf077d13	-0.52925223
69	0xbd6f2bec	-0.058391497
70	0x3eec5b10	0.46163225
71	0x3e06a7fd	0.1315002
72	0xbf98431f	-1.1895484
73	0xbe50bba1	-0.20384075
74	0x3ee1c5e5	0.44096294
75	0x3f3c6185	0.73586303
76	0x3e89ad9c	0.26890266
77	0xbf9a7801	-1.2067872
78	0xbf1d97d4	-0.61559796
79	0x3fb5a108	1.4189768
80	0x3e756c00	0.2396698
81	0xbf84fafb	-1.0389093
82	0xbd8d350a	-0.06894882
83	0xbda58794	-0.080825
84	0xbfe3d7aa	-1.780019
85	0x3f3cdb85	0.7377246
86	0xbf532d6a	-0.8249117
87	0xbd133ae9	-0.035944853
88	0x3ff2e447	1.8975915
89	0x3f310e36	0.6916231
90	0xbfdc88d4	-1.7229257
91	0xbea7ad8b	-0.3274959
92	0x3ffa8581	1.9571992
93	0xbf658ec2	-0.89670956
94	0x3e788c48	0.24272263
95	0xbf70c682	-0.940529
96	0xbf43d8a5	-0.7650245
97	0xbd912ad8	-0.0708825
98	0xbe88c675	-0.2671391
99	0x3f4f6e8b	0.8102805
100	0x3f3ee38b	0.74565953
101	0x3f54b139	0.8308292
102	0xbf9d71d3	-1.2300361
103	0xbefdf3c5	-0.49600044
104	0x3f0a22d3	0.5395939
105	0xbf85407b	-1.0410303
106	0x3f51fcd8	0.82026434
107	0x3f9ddc33	1.2332824
108	0xbf0bafa7	-0.545649
109	0xbee8ed95	-0.4549376
110	0xbef97465	-0.48721614
111	0xbf9c92db	-1.2232317
112	0xbeb90d55	-0.36142984
113	0x3d0a95fc	0.033834442
114	0x3f21fb22	0.63273823
115	0xbf1c28bc	-0.60999656
116	0xbf249187	-0.6428456
117	0xbf67c562	-0.9053556
118	0x3f1d2e14	0.61398435
119	0xbf1ad340	-0.6047859
120	0xbcf7d55e	-0.030253109
121	0xbec788c6	-0.38971537
122	0x3fd7adb7	1.6849889
123	0xbeae98f1	-0.3410106
124	0xbf29c0bc	-0.66309714
125	0x3ec2e2ce	0.38063663
126	0x3fd464ac	1.6593223
127	0x3f8f887d	1.1213528
128	0xbe3dd5dc	-0.18538612
129	0x3fb05e59	1.3778793
130	0x3ed6256d	0.4182543
131	0x3f2e14c1	0.6800042
132	0xbf0e3e69	-0.5556398
133	0x3fccd216	1.6001613
134	0xbec2098c	-0.3789791
135	0xbe3e0c85	-0.18559463
136	0xbf04a776	-0.51818025
137	0xbf4db51e	-0.8035449
138	0x3ecd3cec	0.40085542
139	0xbeb87394	-0.3602568
140	0xbf1d623f	-0.61478037
141	0xbf56cd71	-0.8390723
142	0xbf1e1a14	-0.6175854
143	0x3fb1c0e1	1.3886987
144	0x3be9484d	0.0071192146
145	0x3f1c2ab5	0.61002666
146	0x3d99820c	0.074955076
147	0x3f2598aa	0.6468607
148	0x3ecc7210	0.39930773
149	0x3f126f5e	0.5720118
150	0xbf849cb4	-1.0360322
151	0xbf495f59	-0.78661114
152	0xbe8780b0	-0.26465368
153	0xbf1d41f3	-0.61428756
154	0xbee5eb3d	-0.44906035
155	0x3d6cc7bc	0.05780767
156	0x400df3d5	2.2180073
157	0x3f491ae1	0.7855664
158	0xbe9c4682	-0.30522543
159	0x3f6c0aae	0.92203796
160	0xbecf2c01	-0.4046326
161	0xbe76e816	-0.24111971
162	0xbd9baa55	-0.07600848
163	0xbf1f15b8	-0.62142515
164	0x3f620867	0.8829407
165	0x3eb038d3	0.34418353
166	0x3f71bd7b	0.9442975
167	0xbedab1ee	-0.42713875
168	0xbf9e5326	-1.2369125
169	0xbef0a65a	-0.47001916
170	0x3ef21569	0.4728196
171	0x3f6ffab7	0.93741935
172	0x3ef036fc	0.4691695
173	0xbed7960c	-0.42106664
174	0x3f47866e	0.779395
175	0xbfc50fb2	-1.5395415
176	0xbfb9f147	-1.4526757
177	0xbe2346ea	-0.1594502
178	0x3e9618cb	0.2931579
179	0xbd0e868f	-0.034796294
180	0x3e430f8c	0.190489
181	0xbe937db3	-0.28806838
182	0x3eb982f3	0.3623272
183	0x3ec08699	0.3760269
184	0x3c866265	0.01640434
185	0xbf40a0c6	-0.7524532
186	0x3e403405	0.18769844
187	0xbfaf2e05	-1.3685919
188	0xbf330c9b	-0.6994111
189	0x3e5141f9	0.20435323
190	0xbf74bb8c	-0.95598674
191	0x3fbf3cd7	1.4940442
192	0x3ecc95cf	0.39958045
193	0xbf5c4e76	-0.8605722
194	0xbf4c984f	-0.79919904
195	0xbf7d8b69	-0.9904085
196	0xbee30baf	-0.4434485
197	0x3fd4c773	1.6623367
198	0x3eae91d6	0.3409564
199	0xbe70e7fc	-0.23525995
200	0x3fb80cbf	1.437889
201	0x3ff45b99	1.9090453
202	0x3f37f3d2	0.71856415
203	0x3fa999b1	1.3250028
204	0x3f1cd813	0.61267203
205	0x3f23eef6	0.640365
206	0xbfa75b5e	-1.3074758
207	0x3f525bd2	0.82171357
208	0xbe93167c	-0.28728092
209	0x3eaab664	0.33342278
210	0xbe8d7821	-0.27630714
211	0x3e2b08f0	0.16702628
212	0xbf08db70	-0.53459835
213	0xbf1fab1e	-0.6237048
214	0xbf5b8e01	-0.85763556
215	0x3ebd430d	0.36965218
216	0xbd82fbba	-0.06395669
217	0x3fb06eaa	1.3783772
218	0xbedeca40	-0.4351368
219	0xbedbeffd	-0.42956534
220	0x3f964efb	1.1742853
221	0x3f0e8ba8	0.5568185
222	0x3fb0688f	1.3781909
223	0x3f696b01	0.911789
224	0x3f91f604	1.1403203
225	0x3ec66d78	0.38755393
226	0xbf9622cd	-1.172937
227	0x3f3ef043	0.7458536
228	0x3f88e117	1.0693692
229	0x3fa7d029	1.31104
230	0x3f390b66	0.7228302
231	0xbf938a0d	-1.1526505
232	0x3fb4365d	1.407909
233	0x3f5774f7	0.8416285
234	0xbe3bf183	-0.18353848
235	0x3f93f7a0	1.1559944
236	0xbef3b52d	-0.47599164
237	0xbeefcbea	-0.46835262
238	0xbe0f5446	-0.13996992
239	0x3f81dd50	1.0145664
240	0xbe8d4da5	-0.275983
241	0xbf62b78c	-0.8856132
242	0x3f6ee22b	0.93313855
243	0x3fbf1ab7	1.4930028
244	0x3fa15935	1.2605349
245	0x3ed39881	0.4132729
246	0xbd0a7b60	-0.033809066
247	0x3e5aa66a	0.21352544
248	0x3f876b5b	1.0579637
249	0xbd64cbd5	-0.055858452
250	0xbf256ef7	-0.64622444
251	0x3f8c8f89	1.0981303
252	0xbdd9b611	-0.106304295
253	0x40007035	2.0068486
254	0x3e175793	0.147795
255	0x3fa5b9ed	1.2947365

blocks.0.sa.heads.0.tril f4 [32, 32]
0	0x3f800000	1.0
1	0x00000000	0.0
2	0x00000000	0.0
3	0x00000000	0.0
4	0x00000000	0.0
5	0x00000000	0.0
6	0x00000000	0.0
7	0x00000000	0.0
8	0x00000000	0.0
9	0x00000000	0.0
10	0x00000000	0.0
11	0x00000000	0.0
12	0x00000000	0.0
13	0x00000000	0.0
14	0x00000000	0.0
15	0x00000000	0.0
16	0x00000000	0.0
17	0x00000000	0.0
18	0x00000000	0.0
19	0x00000000	0.0
20	0x00000000	0.0
21	0x00000000	0.0
22	0x00000000	0.0
23	0x00000000	0.0
24	0x00000000	0.0
25	0x00000000	0.0
26	0x00000000	0.0
27	0x00000000	0.0
28	0x00000000	0.0
29	0x00000000	0.0
30	0x00000000	0.0
31	0x00000000	0.0
32	0x3f800000	1.0
33	0x3f800000	1.0
34	0x00000000	0.0
35	0x00000000	0.0
36	0x00000000	0.0
37	0x00000000	0.0
38	0x00000000	0.0
39	0x00000000	0.0
40	0x00000000	0.0
41	0x00000000	0.0
42	0x00000000	0.0
43	0x00000000	0.0
44	0x00000000	0.0
45	0x00000000	0.0
46	0x00000000	0.0
47	0x00000000	0.0
48	0x00000000	0.0
49	0x00000000	0.0
50	0x00000000	0.0
51	0x00000000	0.0
52	0x00000000	0.0
53	0x00000000	0.0
54	0x00000000	0.0
55	0x00000000	0.0
56	0x00000000	0.0
57	0x00000000	0.0
58	0x00000000	0.0
59	0x00000000	0.0
60	0x00000000	0.0
61	0x00000000	0.0
62	0x00000000	0.0
63	0x00000000	0.0
64	0x3f800000	1.0
65	0x3f800000	1.0
66	0x3f800000	1.0
67	0x00000000	0.0
68	0x00000000	0.0
69	0x00000000	0.0
70	0x00000000	0.0
71	0x00000000	0.0
72	0x00000000	0.0
73	0x00000000	0.0
74	0x00000000	0.0
75	0x00000000	0.0
76	0x00000000	0.0
77	0x00000000	0.0
78	0x00000000	0.0
79	0x00000000	0.0
80	0x00000000	0.0
81	0x00000000	0.0
82	0x00000000	0.0
83	0x00000000	0.0
84	0x00000000	0.0
85	0x00000000	0.0
86	0x00000000	0.0
87	0x00000000	0.0
88	0x00000000	0.0
89	0x00000000	0.0
90	0x00000000	0.0
91	0x00000000	0.0
92	0x00000000	0.0
93	0x00000000	0.0
94	0x00000000	0.0
95	0x00000000	0.0
96	0x3f800000	1.0
97	0x3f800000	1.0
98	0x3f800000	1.0
99	0x3f800000	1.0
100	0x00000000	0.0
101	0x00000000	0.0
102	0x00000000	0.0
103	0x00000000	0.0
104	0x00000000	0.0
105	0x00000000	0.0
106	0x00000000	0.0
107	0x00000000	0.0
108	0x00000000	0.0
109	0x00000000	0.0
110	0x00000000	0.0
111	0x00000000	0.0
112	0x00000000	0.0
113	0x00000000	0.0
114	0x00000000	0.0
115	0x00000000	0.0
116	0x00000000	0.0
117	0x00000000	0.0
118	0x00000000	0.0
119	0x00000000	0.0
120	0x00000000	0.0
121	0x00000000	0.0
122	0x00000000	0.0
123	0x00000000	0.0
124	0x00000000	0.0
125	0x00000000	0.0
126	0x00000000	0.0
127	0x00000000	0.0
128	0x3f800000	1.0
129	0x3f800000	1.0
130	0x3f800000	1.0
131	0x3f800000	1.0
132	0x3f800000	1.0
133	0x00000000	0.0
134	0x00000000	0.0
135	0x00000000	0.0
136	0x00000000	0.0
137	0x00000000	0.0
138	0x00000000	0.0
139	0x00000000	0.0
140	0x00000000	0.0
141	0x00000000	0.0
142	0x00000000	0.0
143	0x00000000	0.0
144	0x00000000	0.0
145	0x00000000	0.0
146	0x00000000	0.0
147	0x00000000	0.0
148	0x00000000	0.0
149	0x00000000	0.0
150	0x00000000	0.0
151	0x00000000	0.0
152	0x00000000	0.0
153	0x00000000	0.0
154	0x00000000	0.0
155	0x00000000	0.0
156	0x00000000	0.0
157	0x00000000	0.0
158	0x00000000	0.0
159	0x00000000	0.0
160	0x3f800000	1.0
161	0x3f800000	1.0
162	0x3f800000	1.0
163	0x3f800000	1.0
164	0x3f800000	1.0
165	0x3f800000	1.0
166	0x00000000	0.0
167	0x00000000	0.0
168	0x00000000	0.0
169	0x00000000	0.0
170	0x00000000	0.0
171	0x00000000	0.0
172	0x00000000	0.0
173	0x00000000	0.0
174	0x00000000	0.0
175	0x00000000	0.0
176	0x00000000	0.0
177	0x00000000	0.0
178	0x00000000	0.0
179	0x00000000	0.0
180	0x00000000	0.0
181	0x00000000	0.0
182	0x00000000	0.0
183	0x00000000	0.0
184	0x00000000	0.0
185	0x00000000	0.0
186	0x00000000	0.0
187	0x00000000	0.0
188	0x00000000	0.0
189	0x00000000	0.0
190	0x00000000	0.0
191	0x00000000	0.0
192	0x3f800000	1.0
193	0x3f800000	1.0
194	0x3f800000	1.0
195	0x3f800000	1.0
196	0x3f800000	1.0
197	0x3f800000	1.0
198	0x3f800000	1.0
199	0x00000000	0.0
200	0x00000000	0.0
201	0x00000000	0.0
202	0x00000000	0.0
203	0x00000000	0.0
204	0x00000000	0.0
205	0x00000000	0.0
206	0x00000000	0.0
207	0x00000000	0.0
208	0x00000000	0.0
209	0x00000000	0.0
210	0x00000000	0.0
211	0x00000000	0.0
212	0x00000000	0.0
213	0x00000000	0.0
214	0x00000000	0.0
215	0x00000000	0.0
216	0x00000000	0.0
217	0x00000000	0.0
218	0x00000000	0.0
219	0x00000000	0.0
220	0x00000000	0.0
221	0x00000000	0.0
222	0x00000000	0.0
223	0x00000000	0.0
224	0x3f800000	1.0
225	0x3f800000	1.0
226	0x3f800000	1.0
227	0x3f800000	1.0
228	0x3f800000	1.0
229	0x3f800000	1.0
230	0x3f800000	1.0
231	0x3f800000	1.0
232	0x00000000	0.0
233	0x00000000	0.0
234	0x00000000	0.0
235	0x00000000	0.0
236	0x00000000	0.0
237	0x00000000	0.0
238	0x00000000	0.0
239	0x00000000	0.0
240	0x00000000	0.0
241	0x00000000	0.0
242	0x00000000	0.0
243	0x00000000	0.0
244	0x00000000	0.0
245	0x00000000	0.0
246	0x00000000	0.0
247	0x00000000	0.0
248	0x00000000	0.0
249	0x00000000	0.0
250	0x00000000	0.0
251	0x00000000	0.0
252	0x00000000	0.0
253	0x00000000	0.0
254	0x00000000	0.0
255	0x00000000	0.0

blocks.0.sa.heads.0.key.weight f4 [16, 64]
0	0x3d1b74d2	0.037953205
1	0x3df63075	0.12020961
2	0x3dc47958	0.09593457
3	0xbdfa7d59	-0.122309394
4	0x3dfc3f6c	0.12316784
5	0xbe37748e	-0.17915556
6	0xbe317881	-0.17331125
7	0x39921512	0.0002786299
8	0x3e45ffcc	0.1933586
9	0x3d26b6fd	0.040701855
10	0x3c7a7833	0.015287447
11	0x3e19ff35	0.1503876
12	0xbd67ce58	-0.05659327
13	0xbe1bc176	-0.15210518
14	0x3deddb43	0.116140865
15	0x3e28dbda	0.16490117
16	0xbdb996af	-0.09061944
17	0xbd660383	-0.056155693
18	0x3e0943f4	0.13404828
19	0x3dae02e9	0.08496649
20	0xbe10dcf5	-0.14146788
21	0xbdc80634	-0.09766808
22	0x3d7c1aba	0.061548926
23	0xbcac6f66	-0.021049213
24	0xbd09c399	-0.033633802
25	0x3dc307c7	0.09522968
26	0x3bd03e02	0.006355048
27	0xbd11d869	-0.035606775
28	0xbd40ffe8	-0.04711905
29	0x3c6e04b8	0.014527492
30	0x3e5a8577	0.21339975
31	0xbdef9d39	-0.1169991
32	0x3e06741b	0.13130228
33	0xbc3bc732	-0.011461066
34	0x3dec384f	0.115341775
35	0x3e59fd1a	0.21287957
36	0x3de9d75b	0.11418029
37	0xbe24c40d	-0.16090412
38	0xbdbeb4b7	-0.09311812
39	0x3cc37df0	0.023863763
40	0xbd736516	-0.059422575
41	0xbea7b167	-0.32752535
42	0x3d47fca7	0.048824932
43	0xbd9c205d	-0.0762336
44	0xbc32d6c7	-0.010915465
45	0xbde357cd	-0.11100731
46	0xbe865a4a	-0.2624076
47	0x3a7dd6c9	0.00096831896
48	0xbc3dae4c	-0.0115772
49	0x3cab3a54	0.020901836
50	0xbc47adf9	-0.012187474
51	0xbda1b733	-0.078962706
52	0xbd331985	-0.04372551
53	0x3e02cf03	0.12774281
54	0xbc88a909	-0.016682165
55	0x3cdb8aaf	0.026799528
56	0x3d8cc34d	0.06873188
57	0x3d8d8c5f	0.06911539
58	0x3d94ecb4	0.0727171
59	0x3dc53892	0.096299306
60	0xbe256a7e	-0.16153905
61	0xbd90ba7e	-0.070668206
62	0x3e622b45	0.22086819
63	0xbd912189	-0.070864744
64	0x3cbee651	0.023303183
65	0xbdb55bea	-0.08855422
66	0x3e643e45	0.22289379
67	0x3e07e19b	0.13269655
68	0x3d2e603e	0.042572252
69	0xbca7de3f	-0.020491717
70	0xbeba1961	-0.36347488
71	0xbd9cf1f9	-0.0766334
72	0x3d7faf7a	0.062423207
73	0xbe288109	-0.16455473
74	0xbdbd5de7	-0.09246426
75	0xbdcbd800	-0.09953308
76	0x3e0719ad	0.13193388
77	0xbe0ab96d	-0.13547297
78	0x3e380699	0.17971267
79	0xbda0d184	-0.07852462
80	0x3de86e71	0.1134919
81	0x3ed12e3b	0.40855584
82	0x3df2e52d	0.11860118
83	0x3cf571f0	0.029961556
84	0x3dcd7b65	0.10033301
85	0xbe19164a	-0.14949909
86	0x3e4e6e66	0.20159301
87	0xbd9c6f3b	-0.07638403
88	0xbd97ead4	-0.07417837
89	0x3db29c48	0.087212145
90	0x3de6233f	0.112371914
91	0xbd2efe21	-0.042722825
92	0x3db4b9ca	0.08824499
93	0x3e5bf6a4	0.21480805
94	0x3e59696f	0.21231626
95	0xbd250135	-0.040284354
96	0x3de8184d	0.1133276
97	0x3e3e2732	0.1856964
98	0x3e187af3	0.14890651
99	0xbd376626	-0.04477515
100	0xbe1045d8	-0.14089143
101	0x3c0068f7	0.007837526
102	0xbe837c9a	-0.25681
103	0x3e10257c	0.14076799
104	0xbe4c088f	-0.1992514
105	0x3de8cdd3	0.11367383
106	0xbd7595af	-0.059957203
107	0x3df29e2f	0.118465774
108	0xbe2aa97f	-0.1666622
109	0xbe37b220	-0.17939043
110	0xbc9b72b0	-0.018975586
111	0xbdd4ee10	-0.10396969
112	0xbd43efc6	-0.047836088
113	0xbd1a3b4b	-0.037654202
114	0xbe02b352	-0.12763718
115	0x3e26d419	0.16291846
116	0x3e5fd6e1	0.21859314
117	0x3e8a3f9e	0.2700166
118	0x3d0d7132	0.03453178
119	0x3e77a6ee	0.24184772
120	0xbe2cb84c	-0.16867179
121	0x3e6665be	0.22499749
122	0xbc676beb	-0.014124851
123	0xbccd4303	-0.025056368
124	0x3d1e5d4b	0.03866319
125	0xbdedff4e	-0.11620961
126	0xbd312e6d	-0.043257166
127	0x3e0653eb	0.1311795
128	0xbd23b57a	-0.03996799
129	0x3dfd1cb3	0.123589896
130	0x3b68ce5c	0.003552339
131	0x3d201ca6	0.03908982
132	0x3e3ac88a	0.18240562
133	0xbdb0dacd	-0.08635483
134	0xbe933c27	-0.2875683
135	0x3e0ef339	0.1395997
136	0xbe26c0d1	-0.16284491
137	0x3e0d3621	0.1379018
138	0x3db42ab5	0.08797208
139	0xbdcfba6d	-0.1014298
140	0xbb6e6d5b	-0.00363811
141	0xbde168ed	-0.11006341
142	0x3d687665	0.056753535
143	0xbda7fd2a	-0.08202584
144	0xbe519adb	-0.20469229
145	0xbd422e5c	-0.047407493
146	0x3eab0670	0.3340335
147	0xbd1e893e	-0.038705103
148	0x3db13086	0.08651833
149	0x3d007a4b	0.031366628
150	0x3c2cb207	0.010540492
151	0x3ceec79b	0.029147914
152	0x3da4851c	0.08033201
153	0xbdeca903	-0.11555674
154	0x3d8b0f65	0.06790046
155	0x3d04fc19	0.03246698
156	0xbe135437	-0.14387594
157	0x3e657800	0.22409058
158	0xbc5b1a1b	-0.013372923
159	0xbe02d76a	-0.12777486
160	0x3e23cd2b	0.15996234
161	0xbe805387	-0.25063726
162	0x3e0183c9	0.12647928
163	0x3ba9b9ec	0.0051796343
164	0x3e5a51a1	0.21320201
165	0x3e385195	0.17999871
166	0x3cce6fb1	0.025199743
167	0x3c1683ea	0.009186724
168	0xbda31c59	-0.07964391
169	0x3e473042	0.19452003
170	0xbe508257	-0.2036222
171	0x3ddc2c31	0.10750616
172	0xbdbe125d	-0.09280846
173	0x3e306c14	0.17228729
174	0xbe1b3b5a	-0.1515936
175	0xbdb6b17f	-0.089205734
176	0xba2e8e60	-0.0006658789
177	0xbd8c0da2	-0.06838538
178	0xbdc18d35	-0.09450761
179	0xbe2a01d8	-0.16602266
180	0x3d24789f	0.040154096
181	0xbe452371	-0.19251801
182	0xbcd378b4	-0.025814392
183	0xbc2d9a5f	-0.010595887
184	0x3e271282	0.16315654
185	0xbdc23794	-0.09483257
186	0xbc8434c9	-0.016138451
187	0x3dac0f56	0.084013626
188	0x3dc5cc49	0.09658105
189	0x3e01d3d1	0.12678458
190	0x3d3c5bd4	0.04598601
191	0xbd73d2b2	-0.059527107
192	0x3ddcdb96	0.1078407
193	0xbe1b09d1	-0.15140463
194	0x3e38ba16	0.18039736
195	0xbd3d0232	-0.04614467
196	0x3d39db68	0.045375258
197	0xbe0535e0	-0.13008833
198	0x3a9a2ab1	0.0011761991
199	0xbc6326be	-0.013864217
200	0xbdb562b5	-0.088567175
201	0xbe253dbd	-0.16136833
202	0x3daaeefe	0.083463654
203	0xbe62fef7	-0.22167574
204	0xbd62cee2	-0.05537308
205	0xbe0ec0f0	-0.13940787
206	0x3e0a0c91	0.13481356
207	0xbd66d934	-0.056359485
208	0x3c26c5e7	0.0101790195
209	0x3d551c4b	0.052028935
210	0x3ddab8e6	0.10679798
211	0x3bddea25	0.006772297
212	0xbde0dd6d	-0.109797336
213	0xbe84ff14	-0.2597586
214	0x3e232d6a	0.15935293
215	0xbe9755ff	-0.29557797
216	0xbe749848	-0.23886216
217	0x3e31abd2	0.173507
218	0x3e1a981c	0.15097088
219	0x3e1e2292	0.15442875
220	0x3de8d058	0.113678634
221	0xbe7da20a	-0.24768844
222	0xbe44a087	-0.19201861
223	0x3d623d65	0.05523433
224	0xbc4587ca	-0.0120563
225	0xbe120575	-0.14259894
226	0xbdecc014	-0.115600735
227	0xbdc620bf	-0.096742146
228	0xbc64b89e	-0.013960032
229	0xbcd5d22a	-0.02610119
230	0x3e857a9e	0.26070112
231	0x3d496bfe	0.049175255
232	0x3d99b1f8	0.07504648
233	0xbe60cfe2	-0.21954301
234	0x3cdb6b59	0.026784586
235	0xbd079fb9	-0.033111308
236	0x3e64d211	0.22345759
237	0x3e294950	0.16531873
238	0xbd75fcf2	-0.06005568
239	0x3e81bc13	0.25338802
240	0x3cd19ce7	0.025587512
241	0x3da9e623	0.08295848
242	0x3e1e0de2	0.15434983
243	0x3d1662b8	0.03671524
244	0x3e0872f3	0.133251
245	0x3cbeb73d	0.023280734
246	0xbdfb14ad	-0.12259803
247	0xbdca5126	-0.09878759
248	0x3e965b00	0.29366302
249	0xbdccfec4	-0.1000953
250	0xbcc70698	-0.024295136
251	0x3dab7a39	0.083729215
252	0x3d63cc42	0.055614717
253	0x3e4721f1	0.19446541
254	0xbd4723fd	-0.048618305
255	0xbde9b049	-0.11410577

blocks.0.sa.heads.0.query.weight f4 [16, 64]
0	0x3e347158	0.17621362
1	0x3da9a2bc	0.08282992
2	0xbddfde10	-0.10931027
3	0xbdcc96c2	-0.09989692
4	0xbe101100	-0.14068985
5	0xbddee9bd	-0.10884426
6	0x3da35997	0.07976072
7	0xbd20a3d3	-0.039218735
8	0xbdd304a7	-0.10303622
9	0xbe182070	-0.14856124
10	0xbc8a853e	-0.016909238
11	0xbc049ea8	-0.008094467
12	0xbd81fa31	-0.06346548
13	0xbdac6e9b	-0.08419534
14	0x3d6cba1c	0.057794675
15	0x3cb42a31	0.021992775
16	0x3caadecf	0.020858197
17	0x3c02e5ca	0.007989356
18	0xbe0c2327	-0.13685285
19	0x3d7ad769	0.061240587
20	0xbd03e265	-0.03219833
21	0x3d824008	0.06359869
22	0x3d086c58	0.03330645
23	0xbe5e469b	-0.21706621
24	0xbe05c527	-0.13063489
25	0xbe449dfb	-0.1920089
26	0x3d83abcc	0.06429252
27	0xbbf8c714	-0.0075920913
28	0x3dd81028	0.105499566
29	0xbbb46af3	-0.0055059134
30	0xbd633fe0	-0.055480838
31	0x3e2d3fe8	0.1691891
32	0x3d793590	0.060842097
33	0x3d8164c1	0.063180454
34	0xbda146af	-0.0787481
35	0xbcc59645	-0.024119506
36	0x3dc074f9	0.09397311
37	0x3c8b673f	0.017017005
38	0x3ea8566b	0.32878432
39	0xbb8cbe18	-0.004295122
40	0xbd098108	-0.03357032
41	0xbdd391c6	-0.103305385
42	0x3d4d2021	0.05007947
43	0xbd2ef72d	-0.042716194
44	0x3e363e3a	0.17797175
45	0x3d964b26	0.07338552
46	0x3d958952	0.073015824
47	0xbdf96acd	-0.12178574
48	0xbd86ccd2	-0.06582035
49	0x3dd8235b	0.105536185
50	0x3cf9b5a0	0.030482113
51	0xbe2c3dbe	-0.16820428
52	0x3b9398bd	0.004504292
53	0x3e281a9e	0.16416404
54	0xbd3b9c2b	-0.04580323
55	0x3e15fe86	0.14647874
56	0xbd896154	-0.06708017
57	0x3bae5101	0.005319715
58	0xbd014802	-0.031562813
59	0xbd801e12	-0.062557355
60	0x3dba9f3a	0.09112401
61	0x3ccde6ba	0.025134433
62	0x3e3289b5	0.17435344
63	0xbd9c5a02	-0.07634355
64	0xbc99be03	-0.018767362
65	0xbdcbf1a9	-0.099582024
66	0x3cf97980	0.030453444
67	0x3da2fb6d	0.07958112
68	0xbe25314c	-0.16132087
69	0xbe0f7bbd	-0.14012046
70	0x3dd59127	0.10428076
71	0xbdf3f57c	-0.11912057
72	0x3c52ae4b	0.0128589375
73	0xbde988e5	-0.11403064
74	0xbc169364	-0.009190414
75	0x3e0c8e66	0.13726196
76	0x3cca042d	0.024660194
77	0x3d9e1a20	0.07719827
78	0x3d0b32a3	0.033983838
79	0x3d9d6777	0.0768575
80	0xbde0a564	-0.10969046
81	0x3c999633	0.018748378
82	0xbe39d8ef	-0.1814916
83	0xbe05eefd	-0.13079448
84	0xbd95b821	-0.073105104
85	0xbe35de6e	-0.17760631
86	0x3da6ccba	0.08144517
87	0xbc7d7682	-0.015470149
88	0xbe736104	-0.23767477
89	0x3e2630fb	0.16229622
90	0x3ddc15cb	0.10746344
91	0xbdb20ffb	-0.08694454
92	0xbdb7a600	-0.08967209
93	0xbe291ea7	-0.16515599
94	0x3cc58395	0.024110595
95	0xbd0756a7	-0.033041622
96	0x39dcca16	0.00042112236
97	0xbe0f7bdc	-0.14012092
98	0xbc44da42	-0.012014927
99	0x3e795641	0.2434931
100	0x3dba535f	0.09097933
101	0xbe11c969	-0.14236988
102	0x3e304487	0.17213641
103	0xbd15a563	-0.03653468
104	0x3e486c21	0.19572498
105	0xbcd7249c	-0.026262574
106	0x3d2a652e	0.0416004
107	0x3e5829d9	0.21109714
108	0xbc6cc2a5	-0.014450704
109	0xbea1a81c	-0.3157357
110	0x3a5cb348	0.0008419049
111	0x3ea9da0e	0.33174175
112	0x3d02680c	0.031837508
113	0xbd493a0a	-0.049127616
114	0x3d4dd53d	0.050252188
115	0xbdc1a2a0	-0.094548464
116	0xbe021cc0	-0.1270628
117	0x3e1ddc32	0.15416029
118	0x3e18c234	0.14917833
119	0x3e557c2e	0.20848152
120	0xbe36e67e	-0.17861363
121	0x3e9cdec2	0.306387
122	0x3d20fc24	0.03930296
123	0x3d31e1f3	0.043428373
124	0xbda44215	-0.08020417
125	0xbcb46b8b	-0.022023937
126	0x3c883fa6	0.016631912
127	0x3d4d2a0d	0.05008893
128	0xbd40a261	-0.047029857
129	0x3e1689ee	0.14701054
130	0x3d0f79da	0.035028316
131	0x3e2de359	0.16981257
132	0x3cbe7ea0	0.023253739
133	0x3d0860ed	0.03329556
134	0x3e186bb9	0.14884843
135	0x3cd10295	0.025513927
136	0xbdc629ac	-0.09675917
137	0x3e6cebdf	0.23136853
138	0x3d5b105a	0.05348239
139	0xbe38661c	-0.18007702
140	0xbe302d8a	-0.17204872
141	0x3df01238	0.11722225
142	0x3e559916	0.20859179
143	0x3cc36ef6	0.023856621
144	0xbd07c5a8	-0.033147484
145	0x3ddd1b53	0.10796227
146	0x3d846cae	0.064660415
147	0x3dee8c69	0.11647875
148	0xbdb57602	-0.08860399
149	0x3d9f067a	0.07764907
150	0x3d37e076	0.044891797
151	0xbd13fb88	-0.03612855
152	0x3c7e2dda	0.015513862
153	0x3d5dac78	0.054119557
154	0xbd1f0c13	-0.038829874
155	0x3cc148c3	0.023594266
156	0xbd7d91e3	-0.061906707
157	0xbda84222	-0.08215739
158	0x3d03f027	0.03221145
159	0xbe444b17	-0.1916927
160	0x3e1729b8	0.14762008
161	0x3cee9d88	0.029127851
162	0xbd29ea92	-0.04148347
163	0x3ddccf58	0.10781735
164	0xbda0c5d3	-0.07850232
165	0xbd82608c	-0.06366071
166	0x3cbadf76	0.022811633
167	0x3e41f226	0.18940029
168	0x3d56b464	0.052418128
169	0xbe152bb5	-0.14567454
170	0x3ddd8871	0.1081704
171	0xbdf22009	-0.118225165
172	0xbdd5b70d	-0.10435305
173	0x3d8894c9	0.066690035
174	0xbdd9076c	-0.10597119
175	0x3d872c26	0.066002175
176	0x3d1fec38	0.039043635
177	0xbdaef5e1	-0.085429914
178	0x3d24950e	0.040181212
179	0xbe1744b3	-0.147723
180	0xbd39d8b1	-0.04537267
181	0x3b97ddf9	0.0046346155
182	0x3cbadb1e	0.022809561
183	0x3d1e1c64	0.038601294
184	0x3c761cb3	0.015021491
185	0xbcc2fdb5	-0.023802618
186	0xbd8aef5b	-0.06783935
187	0xbd6e086d	-0.058113504
188	0xbe3ef94b	-0.18649785
189	0xbd0a7992	-0.033807345
190	0x3e326b46	0.17423734
191	0xbe8501a2	-0.25977808
192	0xbd45b1e6	-0.04826536
193	0x3e8348a0	0.25641346
194	0xbe4f02ba	-0.20215884
195	0xbd9410f0	-0.07229793
196	0xbd5f2284	-0.054476276
197	0xbe316754	-0.17324573
198	0x3d85e8aa	0.06538518
199	0xbdb12e47	-0.08651405
200	0xbe38f954	-0.18063861
201	0xbc19c043	-0.009384218
202	0xbe800e3a	-0.25010854
203	0x3d2d4d4e	0.04231005
204	0x3e0bb1ac	0.13641995
205	0xbe1f8c0c	-0.15580767
206	0x3c3282dc	0.010895457
207	0x3d01f30c	0.03172593
208	0x3d125c7e	0.03573274
209	0xbe9a97bb	-0.30193886
210	0x3e8d19de	0.27558798
211	0xbe0eef75	-0.13958533
212	0x3c3ee458	0.011651121
213	0x3e67bdd0	0.22631001
214	0x3aae854d	0.0013314873
215	0x3dc0f451	0.094216
216	0x3e01bb91	0.12669207
217	0xbced79a5	-0.028988669
218	0xbd94657d	-0.0724592
219	0xbd8006bf	-0.06251287
220	0x3d5abd80	0.053403378
221	0xbde55ce6	-0.111993596
222	0x3dc22876	0.094803736
223	0xbd89c04e	-0.06726132
224	0xbd16a841	-0.036781553
225	0x3e8b73d2	0.272368
226	0xbdd567de	-0.10420202
227	0x3ce76064	0.028244205
228	0xbd030176	-0.031983815
229	0xbbbb0c9e	-0.005708291
230	0x3c0c014d	0.008545232
231	0x3dbd0a4f	0.09230482
232	0x3eaaca88	0.33357644
233	0x3da7c6c5	0.08192209
234	0x3c945d2b	0.018110832
235	0x3e651bfb	0.22373955
236	0xbde5d3e8	-0.112220585
237	0x3d9c2ae0	0.07625365
238	0x3ce18dd2	0.027533446
239	0x3e243ab6	0.16038021
240	0x3cb5fda9	0.022215681
241	0xbd86a3af	-0.06574189
242	0x3cbec356	0.023286503
243	0x3cbc7371	0.023004266
244	0xbde50f8e	-0.111846074
245	0xbdedcdda	-0.11611529
246	0xbe0aa069	-0.13537754
247	0x3d2bf80d	0.041984607
248	0xbd2c5fc9	-0.042083535
249	0xbdd40e90	-0.1035434
250	0x3ea26298	0.31715846
251	0xbe0896dd	-0.133388
252	0x3d053506	0.03252127
253	0xbd2de710	-0.042456686
254	0x3e26ebd1	0.16300894
255	0xbde24ded	-0.110500194

blocks.0.sa.heads.0.value.weight f4 [16, 64]
0	0xbc2f8663	-0.010713193
1	0xbd94eb43	-0.07271435
2	0x3dab285e	0.08357309
3	0xb925720a	-0.00015778109
4	0x3da733db	0.081641875
5	0xbdac2bee	-0.084068164
6	0xbd12cc2a	-0.035839237
7	0x3e6c9bc6	0.23106298
8	0x3be2701a	0.006910336
9	0x3ddd3278	0.10800642
10	0x3e1cb833	0.15304641
11	0xbd8f6ba7	-0.07002955
12	0x3ccfd61b	0.025370648
13	0x3c7dfae4	0.0155017115
14	0x3c83450c	0.016024135
15	0x3837030a	4.363343e-05
16	0xbdb1f891	-0.086899884
17	0xbd243a96	-0.040094934
18	0xbcec0d1f	-0.02881485
19	0xbd854bcc	-0.06508598
20	0xbdc1f932	-0.09471358
21	0xbda9a89a	-0.08284111
22	0x3cf538f0	0.029934376
23	0x3c0ec710	0.008714452
24	0x3d5c0965	0.053719897
25	0xbdb3a666	-0.08771972
26	0xbd9315fe	-0.07181929
27	0x3c73b872	0.014875518
28	0xbdd219f0	-0.102588534
29	0x3d3b8a4f	0.0457862
30	0x3d4d09c6	0.05005815
31	0x3d80b385	0.06284241
32	0x3ca8de96	0.02061395
33	0x3d0becf4	0.034161523
34	0xb8dea66a	-0.00010616782
35	0x3e0dccc8	0.13847649
36	0xbbfb1552	-0.0076624537
37	0xbd116e9f	-0.035505887
38	0x3e040ede	0.12896296
39	0xbd713e1c	-0.058897123
40	0x3e26414f	0.16235851
41	0x3d041b36	0.032252513
42	0x3ce3273a	0.027728666
43	0x3dba3959	0.090929694
44	0x3ca53f67	0.020171834
45	0x3e1a658c	0.150778
46	0x3d402dba	0.04691861
47	0xbe0c5a65	-0.13706358
48	0xbd4b9fff	-0.04971313
49	0xbde85fc1	-0.113463886
50	0x3da30a4c	0.07960948
51	0xbbde78cf	-0.006789304
52	0xbdbca339	-0.0921082
53	0xbc73c546	-0.014878577
54	0x3cf7868a	0.03021552
55	0xbdbfa012	-0.09356703
56	0x3d3b966f	0.04579776
57	0x3d7dcfde	0.061965816
58	0xbda407b6	-0.08009283
59	0x3cda7936	0.026669126
60	0x3d82840e	0.06372844
61	0xbc958e31	-0.018256279
62	0x3c5ae2f3	0.013359773
63	0xbd513eff	-0.05108547
64	0xbc148157	-0.00906404
65	0x3d75d8a1	0.060021047
66	0x3d2dbcc6	0.042416357
67	0xbc60bc71	-0.013716803
68	0xbc8b648a	-0.017015714
69	0xbddad8d1	-0.10685886
70	0x3c02733b	0.007962043
71	0x3d8e0dc3	0.069362186
72	0x3db46fad	0.08810363
73	0x3e11908c	0.14215297
74	0xbd50c177	-0.050965752
75	0x3d968f0c	0.07351503
76	0xbe237a53	-0.15964632
77	0xbdcfa60f	-0.10139095
78	0x3dc857c8	0.09782368
79	0x3dde4383	0.108527206
80	0x3cf74bca	0.030187506
81	0xbc16c8ca	-0.009203145
82	0xbd385413	-0.045002054
83	0xbd7f315f	-0.062302943
84	0xbe54e01d	-0.20788617
85	0xbdd58f32	-0.10427703
86	0xbd1de221	-0.03854573
87	0x3d0a5bd5	0.033778984
88	0xbdc86c26	-0.09786253
89	0xbd166abf	-0.036722895
90	0xbdc8caf0	-0.09804332
91	0xbd58b249	-0.0529044
92	0xbdfdf6da	-0.12400599
93	0x3e189035	0.1489876
94	0xbbe7b6a0	-0.007071331
95	0x3d41650e	0.047215514
96	0x3d0d8625	0.03455176
97	0x3d462728	0.048377186
98	0x3d717cab	0.058956783
99	0xbd6d5eb8	-0.05795166
100	0x3d49d0d0	0.049271405
101	0xbd90b611	-0.070659764
102	0xbe1b8f40	-0.15191364
103	0xbb950539	-0.0045477417
104	0xbc3dc6fd	-0.011583087
105	0xbbd979d9	-0.00663684
106	0x3e541554	0.20711261
107	0xbd178c33	-0.03699894
108	0xbc81db03	-0.015851503
109	0xbda64edd	-0.08120511
110	0xbb06be52	-0.0020560217
111	0x3d8d4977	0.06898778
112	0xbe4ab9b6	-0.19797406
113	0x3d75ce63	0.06001128
114	0x3da8f61a	0.08250065
115	0xbc81c078	-0.015838847
116	0x3dc6eb05	0.09712795
117	0xbdb3a3f2	-0.087715045
118	0x3d9d730b	0.07687958
119	0xbce422f7	-0.027848704
120	0xbc24a063	-0.010048005
121	0xbc6d3002	-0.014476778
122	0x3d98e375	0.07465259
123	0x3d45b3e4	0.04826726
124	0xbe1e2890	-0.15445161
125	0xbdf47cf7	-0.11937898
126	0xbd12ef40	-0.035872698
127	0x3978a29a	0.00023711697
128	0x3d73df5a	0.059539177
129	0xbda18fbf	-0.078887455
130	0x3cb5313a	0.0221182
131	0x3d8a029c	0.06738779
132	0x3e40ecea	0.18840376
133	0xbd98a822	-0.07453944
134	0x3a60a901	0.00085701054
135	0xbe378340	-0.17921162
136	0x3d5b7676	0.05357977
137	0xbdff4368	-0.124640286
138	0x3e039156	0.1284841
139	0xbd3f7928	-0.046746403
140	0xbcf68a36	-0.030095201
141	0x3e27f4e9	0.1640202
142	0x3dbd7d5c	0.09252426
143	0x3e1ba967	0.1520134
144	0xbd85b51b	-0.06528684
145	0x3e2f4aae	0.17118332
146	0xbd8a207e	-0.06744479
147	0xbe1d1d63	-0.15343241
148	0xbe0fc36b	-0.1403939
149	0xbda3475b	-0.07972594
150	0x3d5ebd6e	0.054379873
151	0x3ceafa03	0.028683668
152	0x3d171036	0.036880694
153	0x3bb78d05	0.0056015276
154	0xbda17e20	-0.078853846
155	0x3cc244a9	0.02371438
156	0xbd2e1d15	-0.042508204
157	0x3e1112c6	0.14167318
158	0x3d62f09a	0.055405237
159	0x3da60aa8	0.08107501
160	0xbdfbada3	-0.12288978
161	0xbe85c39e	-0.26125807
162	0x3cbff9a6	0.023434471
163	0x3cb6c828	0.022312239
164	0x3d96e6f8	0.073682725
165	0xbd7e3e79	-0.062071297
166	0x3d49dc3d	0.0492823
167	0x3c101b08	0.008795507
168	0xbdc6077a	-0.09669395
169	0xbd0731ee	-0.0330066
170	0x3ce3e1cc	0.02781763
171	0x3d8cef3a	0.06881566
172	0x3ded3560	0.11582446
173	0xbda9ac23	-0.082847856
174	0xbb76777a	-0.0037607835
175	0x3dd3e631	0.1034664
176	0x3c7cf157	0.015438399
177	0x3dbabb6c	0.09117779
178	0xbd29c074	-0.041443303
179	0x3da50111	0.08056844
180	0x3ddb9647	0.107220225
181	0xbdb28d77	-0.087183885
182	0xbdb0e317	-0.08637064
183	0xbe15d769	-0.14632954
184	0x3e18c8fe	0.14920422
185	0xbd27262f	-0.0408079
186	0x3bc8b7b4	0.0061254147
187	0xbcf767d1	-0.03020087
188	0x3d8af442	0.0678487
189	0xbba1b0aa	-0.00493439
190	0x3d260df4	0.04054065
191	0xbb942ecd	-0.0045221807
192	0x3d0c0945	0.034188528
193	0x3de2da47	0.11076789
194	0x3d82df1d	0.06390212
195	0xbdcdaffb	-0.10043331
196	0xbc43a748	-0.011941738
197	0x3e104f31	0.14092709
198	0x3d2b0c91	0.04176003
199	0xbcbc48ce	-0.022983935
200	0x3e2c51b5	0.16828044
201	0x3d415e6c	0.04720919
202	0x3b5f02fb	0.0034028876
203	0x3d449dea	0.04800216
204	0x3c5a7210	0.013332859
205	0x3a3e6e72	0.00072643824
206	0xbce69e5f	-0.02815169
207	0xbd0b41d8	-0.03399834
208	0x3d2390ce	0.03993302
209	0x3bc948b4	0.0061427
210	0xbd930477	-0.07178586
211	0x3db125ca	0.08649786
212	0xbbe908bd	-0.0071116374
213	0xbe18a77e	-0.14907643
214	0xbdd5e71f	-0.104444735
215	0xbbbfed58	-0.005857151
216	0xbae9b52d	-0.0017830484
217	0x3c44f3a5	0.01202098
218	0x3c345006	0.011005407
219	0xbd54b1f1	-0.05192751
220	0x3df95ef6	0.121763155
221	0x3be35d2d	0.0069385977
222	0xbdae7ce7	-0.08519917
223	0xbd1410c7	-0.036148813
224	0xbd5ac78f	-0.05341297
225	0x3d74a52f	0.059727844
226	0x3e36ab10	0.17838693
227	0x3bbb42b9	0.005714741
228	0xbd9ef99c	-0.07762453
229	0xbd8369fc	-0.06416699
230	0x3ce33382	0.027734522
231	0x3c3475f6	0.011014452
232	0xbd213bbd	-0.03936361
233	0xbdf0e2e0	-0.11762023
234	0x3e440ec0	0.19146252
235	0x3b85ae7a	0.004079637
236	0x3c2cfe45	0.010558669
237	0xbddcb3db	-0.10776492
238	0x3d01214e	0.031525902
239	0x3d175ad0	0.03695184
240	0x3d673fdb	0.05645738
241	0x3d03f900	0.032219887
242	0x3c5b8e83	0.013400677
243	0x3e1b7f87	0.15185367
244	0x3d2704d0	0.040776074
245	0x3e111517	0.14168201
246	0x3d82696b	0.06367763
247	0x3db631ca	0.08896215
248	0xbdfc8a91	-0.12331117
249	0x3d2a66ce	0.04160195
250	0xbd242e8c	-0.040083453
251	0xbd361c6a	-0.04446069
252	0xbd8a07b2	-0.06739749
253	0x3d9076f2	0.07053937
254	0xbe037c41	-0.12840368
255	0xbe062d1e	-0.13103148

blocks.0.sa.heads.1.tril f4 [32, 32]
0	0x3f800000	1.0
1	0x00000000	0.0
2	0x00000000	0.0
3	0x00000000	0.0
4	0x00000000	0.0
5	0x00000000	0.0
6	0x00000000	0.0
7	0x00000000	0.0
8	0x00000000	0.0
9	0x00000000	0.0
10	0x00000000	0.0
11	0x00000000	0.0
12	0x00000000	0.0
13	0x00000000	0.0
14	0x00000000	0.0
15	0x00000000	0.0
16	0x00000000	0.0
17	0x00000000	0.0
18	0x00000000	0.0
19	0x00000000	0.0
20	0x00000000	0.0
21	0x00000000	0.0
22	0x00000000	0.0
23	0x00000000	0.0
24	0x00000000	0.0
25	0x00000000	0.0
26	0x00000000	0.0
27	0x00000000	0.0
28	0x00000000	0.0
29	0x00000000	0.0
30	0x00000000	0.0
31	0x00000000	0.0
32	0x3f800000	1.0
33	0x3f800000	1.0
34	0x00000000	0.0
35	0x00000000	0.0
36	0x00000000	0.0
37	0x00000000	0.0
38	0x00000000	0.0
39	0x00000000	0.0
40	0x00000000	0.0
41	0x00000000	0.0
42	0x00000000	0.0
43	0x00000000	0.0
44	0x00000000	0.0
45	0x00000000	0.0
46	0x00000000	0.0
47	0x00000000	0.0
48	0x00000000	0.0
49	0x00000000	0.0
50	0x00000000	0.0
51	0x00000000	0.0
52	0x00000000	0.0
53	0x00000000	0.0
54	0x00000000	0.0
55	0x00000000	0.0
56	0x00000000	0.0
57	0x00000000	0.0
58	0x00000000	0.0
59	0x00000000	0.0
60	0x00000000	0.0
61	0x00000000	0.0
62	0x00000000	0.0
63	0x00000000	0.0
64	0x3f800000	1.0
65	0x3f800000	1.0
66	0x3f800000	1.0
67	0x00000000	0.0
68	0x00000000	0.0
69	0x00000000	0.0
70	0x00000000	0.0
71	0x00000000	0.0
72	0x00000000	0.0
73	0x00000000	0.0
74	0x00000000	0.0
75	0x00000000	0.0
76	0x00000000	0.0
77	0x00000000	0.0
78	0x00000000	0.0
79	0x00000000	0.0
80	0x00000000	0.0
81	0x00000000	0.0
82	0x00000000	0.0
83	0x00000000	0.0
84	0x00000000	0.0
85	0x00000000	0.0
86	0x00000000	0.0
87	0x00000000	0.0
88	0x00000000	0.0
89	0x00000000	0.0
90	0x00000000	0.0
91	0x00000000	0.0
92	0x00000000	0.0
93	0x00000000	0.0
94	0x00000000	0.0
95	0x00000000	0.0
96	0x3f800000	1.0
97	0x3f800000	1.0
98	0x3f800000	1.0
99	0x3f800000	1.0
100	0x00000000	0.0
101	0x00000000	0.0
102	0x00000000	0.0
103	0x00000000	0.0
104	0x00000000	0.0
105	0x00000000	0.0
106	0x00000000	0.0
107	0x00000000	0.0
108	0x00000000	0.0
109	0x00000000	0.0
110	0x00000000	0.0
111	0x00000000	0.0
112	0x00000000	0.0
113	0x00000000	0.0
114	0x00000000	0.0
115	0x00000000	0.0
116	0x00000000	0.0
117	0x00000000	0.0
118	0x00000000	0.0
119	0x00000000	0.0
120	0x00000000	0.0
121	0x00000000	0.0
122	0x00000000	0.0
123	0x00000000	0.0
124	0x00000000	0.0
125	0x00000000	0.0
126	0x00000000	0.0
127	0x00000000	0.0
128	0x3f800000	1.0
129	0x3f800000	1.0
130	0x3f800000	1.0
131	0x3f800000	1.0
132	0x3f800000	1.0
133	0x00000000	0.0
134	0x00000000	0.0
135	0x00000000	0.0
136	0x00000000	0.0
137	0x00000000	0.0
138	0x00000000	0.0
139	0x00000000	0.0
140	0x00000000	0.0
141	0x00000000	0.0
142	0x00000000	0.0
143	0x00000000	0.0
144	0x00000000	0.0
145	0x00000000	0.0
146	0x00000000	0.0
147	0x00000000	0.0
148	0x00000000	0.0
149	0x00000000	0.0
150	0x00000000	0.0
151	0x00000000	0.0
152	0x00000000	0.0
153	0x00000000	0.0
154	0x00000000	0.0
155	0x00000000	0.0
156	0x00000000	0.0
157	0x00000000	0.0
158	0x00000000	0.0
159	0x00000000	0.0
160	0x3f800000	1.0
161	0x3f800000	1.0
162	0x3f800000	1.0
163	0x3f800000	1.0
164	0x3f800000	1.0
165	0x3f800000	1.0
166	0x00000000	0.0
167	0x00000000	0.0
168	0x00000000	0.0
169	0x00000000	0.0
170	0x00000000	0.0
171	0x00000000	0.0
172	0x00000000	0.0
173	0x00000000	0.0
174	0x00000000	0.0
175	0x00000000	0.0
176	0x00000000	0.0
177	0x00000000	0.0
178	0x00000000	0.0
179	0x00000000	0.0
180	0x00000000	0.0
181	0x00000000	0.0
182	0x00000000	0.0
183	0x00000000	0.0
184	0x00000000	0.0
185	0x00000000	0.0
186	0x00000000	0.0
187	0x00000000	0.0
188	0x00000000	0.0
189	0x00000000	0.0
190	0x00000000	0.0
191	0x00000000	0.0
192	0x3f800000	1.0
193	0x3f800000	1.0
194	0x3f800000	1.0
195	0x3f800000	1.0
196	0x3f800000	1.0
197	0x3f800000	1.0
198	0x3f800000	1.0
199	0x00000000	0.0
200	0x00000000	0.0
201	0x00000000	0.0
202	0x00000000	0.0
203	0x00000000	0.0
204	0x00000000	0.0
205	0x00000000	0.0
206	0x00000000	0.0
207	0x00000000	0.0
208	0x00000000	0.0
209	0x00000000	0.0
210	0x00000000	0.0
211	0x00000000	0.0
212	0x00000000	0.0
213	0x00000000	0.0
214	0x00000000	0.0
215	0x00000000	0.0
216	0x00000000	0.0
217	0x00000000	0.0
218	0x00000000	0.0
219	0x00000000	0.0
220	0x00000000	0.0
221	0x00000000	0.0
222	0x00000000	0.0
223	0x00000000	0.0
224	0x3f800000	1.0
225	0x3f800000	1.0
226	0x3f800000	1.0
227	0x3f800000	1.0
228	0x3f800000	1.0
229	0x3f800000	1.0
230	0x3f800000	1.0
231	0x3f800000	1.0
232	0x00000000	0.0
233	0x00000000	0.0
234	0x00000000	0.0
235	0x00000000	0.0
236	0x00000000	0.0
237	0x00000000	0.0
238	0x00000000	0.0
239	0x00000000	0.0
240	0x00000000	0.0
241	0x00000000	0.0
242	0x00000000	0.0
243	0x00000000	0.0
244	0x00000000	0.0
245	0x00000000	0.0
246	0x00000000	0.0
247	0x00000000	0.0
248	0x00000000	0.0
249	0x00000000	0.0
250	0x00000000	0.0
251	0x00000000	0.0
252	0x00000000	0.0
253	0x00000000	0.0
254	0x00000000	0.0
255	0x00000000	0.0

blocks.0.sa.heads.1.key.weight f4 [16, 64]
0	0xbd36a0a2	-0.044586785
1	0x3e4c9dad	0.19982024
2	0xbec37204	-0.38172925
3	0x3e8be844	0.27325642
4	0x3e8e62fb	0.2780989
5	0xbdfa8b14	-0.12233558
6	0x3e9ed94c	0.3102516
7	0x3db50f64	0.08840826
8	0xbe18ebcd	-0.14933701
9	0x3e0e86d3	0.13918619
10	0xbe2777ab	-0.16354243
11	0xbd496bfa	-0.04917524
12	0xbe15f92e	-0.14645836
13	0x3ec89a6b	0.39180312
14	0xbe0088e4	-0.1255222
15	0xbd2b5ac2	-0.0418346
16	0xbde7b4d7	-0.11313789
17	0x3d0d0083	0.034424316
18	0xbd75810a	-0.059937514
19	0x3ebdddea	0.3708337
20	0xbe370a89	-0.17875113
21	0x3e8624ce	0.26199955
22	0x3cfa6749	0.030566828
23	0x3e21f6a4	0.15816742
24	0x3e03f9d3	0.12888269
25	0xbe198426	-0.14991817
26	0xbde304ab	-0.11084875
27	0xbd48f01a	-0.049057104
28	0x3d331eaf	0.043730434
29	0xbdc67ec1	-0.09692145
30	0xbe540789	-0.20706
31	0x3d37815b	0.044801097
32	0x3b49ffc4	0.0030822614
33	0x3eb0939e	0.34487623
34	0xbdeed72e	-0.11662136
35	0x3e0c51ca	0.13703075
36	0xbcaae811	-0.020862611
37	0xbe02b0e1	-0.12762786
38	0xbebe99f2	-0.37226826
39	0x3e428d62	0.18999246
40	0x3de259ed	0.11052308
41	0xbea94009	-0.33056667
42	0x3e4f6c8e	0.20256254
43	0xbd7786d1	-0.060431305
44	0xbd240a80	-0.040049076
45	0x3e5eb42b	0.21748416
46	0xbda16552	-0.078806534
47	0x3de9b469	0.11411364
48	0x3d3a2a4e	0.0454505
49	0x3e952862	0.29132372
50	0xbef7a4e1	-0.4836798
51	0x3d9dc7a6	0.077040955
52	0xbc9c5988	-0.01908566
53	0x3cb80960	0.022465408
54	0xbe66b104	-0.22528464
55	0x3bcb244c	0.0061993953
56	0x3d6bea1b	0.057596307
57	0xbd61bb4b	-0.055110257
58	0xbe3666a7	-0.17812596
59	0x3d191cb6	0.037380897
60	0x3c0d690f	0.008631005
61	0xbe0e46c5	-0.13894184
62	0x3e36e799	0.17861785
63	0xbe99caa4	-0.30037415
64	0xbe327ac4	-0.17429644
65	0xbdef4ab5	-0.11684171
66	0xbe8e7d0c	-0.27829778
67	0xbe7dfd95	-0.24803765
68	0x3d878908	0.066179335
69	0xbe209a91	-0.15683962
70	0x3e3564d4	0.17714244
71	0xbe03688b	-0.12832849
72	0xbdae003b	-0.08496138
73	0xbe770c32	-0.24125746
74	0x3cc54e04	0.024085052
75	0x3e52c251	0.20581938
76	0xbde4f2f0	-0.11179149
77	0x3df42469	0.11921007
78	0xbe57adb5	-0.21062358
79	0x3d111af5	0.0354261
80	0xbbef210f	-0.007297642
81	0xbdf8f41f	-0.121559374
82	0xbee2479b	-0.44195256
83	0x3e3c4160	0.18384314
84	0x3dab5b76	0.08367054
85	0x3e0a7d35	0.13524325
86	0x3dde1a41	0.10844851
87	0x3d26c1c1	0.040712122
88	0xbcd74731	-0.026279064
89	0x3e65f036	0.22454914
90	0x3e8e58d5	0.27802148
91	0xbe10bec7	-0.14135276
92	0x3e06c478	0.13160884
93	0x3cba3340	0.022729516
94	0xbe333455	-0.17500432
95	0xbe1e82f3	-0.1547964
96	0x3c12d5c5	0.008962099
97	0x3c91afce	0.017784026
98	0xbe250998	-0.16116941
99	0x3da69490	0.08133805
100	0xbd59b8e1	-0.05315483
101	0x3d9418e1	0.07231308
102	0x3e86d2a3	0.26332578
103	0x3caf1dcc	0.021376513
104	0x3d993758	0.07481259
105	0xbd71a5fa	-0.05899618
106	0x3e7e7019	0.2484745
107	0x3e7d1311	0.24714305
108	0x3d0655a4	0.032796517
109	0xbe1b3d2c	-0.15160054
110	0xbe689e76	-0.22716698
111	0x3e3f173d	0.18661208
112	0xbdaf5b9f	-0.08562397
113	0xbe689895	-0.22714455
114	0xbdbf2d70	-0.093348384
115	0x3e47c261	0.19507743
116	0x3d893db2	0.067012206
117	0x3cb81c37	0.022474391
118	0xbe262422	-0.16224721
119	0x3e24b76d	0.16085596
120	0xbe055ef7	-0.13024507
121	0xbd929f96	-0.07159345
122	0x3dadceb6	0.084866926
123	0x3e7127db	0.2355036
124	0x3dabe49e	0.08393215
125	0x3e31e5a7	0.17372762
126	0x3e347719	0.17623557
127	0x3e77673a	0.24160472
128	0xbe7a6f27	-0.24456464
129	0xbe5beb6c	-0.21476525
130	0xbed7d918	-0.42157817
131	0xbd905d69	-0.070490666
132	0x3e0d1a11	0.13779475
133	0xbe013803	-0.12619023
134	0x3e883b41	0.26607707
135	0x3dede1ad	0.1161531
136	0x3ea88668	0.32915044
137	0xbe338d87	-0.17534457
138	0x3cec1636	0.028819185
139	0x3ea0b31b	0.31386647
140	0xbe2eaf30	-0.17059016
141	0xbe0b814d	-0.13623543
142	0xbea1d1ec	-0.3160547
143	0x3e17bc58	0.14817941
144	0xbe03aacc	-0.12858123
145	0xbd552cb2	-0.052044578
146	0xbdbb1d85	-0.0913649
147	0xbddf8ef9	-0.10915942
148	0xbb94b2b5	-0.004537905
149	0xbe38a6da	-0.18032399
150	0xbdf65fd3	-0.12029996
151	0x3e5fbbce	0.21848986
152	0x3df9ab74	0.12190905
153	0xbda1120b	-0.078647695
154	0x3e0c190e	0.13681433
155	0xbe5a7cd7	-0.21336685
156	0xbecbb69e	-0.39787763
157	0x3ebc73fa	0.36807233
158	0xbda440bc	-0.080201596
159	0xbb5330cf	-0.0032225137
160	0x3de97792	0.11399759
161	0x3e1b3fef	0.15161107
162	0xbe1cc9f0	-0.15311408
163	0xbde3bbb1	-0.11119784
164	0xbdf3d3dd	-0.11905644
165	0x3e66b16f	0.22528623
166	0xbca1e34d	-0.019761706
167	0xbe816ed3	-0.25279865
168	0x3df76899	0.12080497
169	0x3e53a72b	0.20669238
170	0xbce85b58	-0.028363869
171	0x3e2c9848	0.16854966
172	0xbd162139	-0.036652777
173	0x3e240fe6	0.1602169
174	0xbe068bbd	-0.13139243
175	0x3ee85a84	0.45381558
176	0x3b9ce320	0.0047878176
177	0xbc65ef63	-0.014034125
178	0x3eb4f4e5	0.3534309
179	0x3e89b6d2	0.26897293
180	0xbdaebf09	-0.08532531
181	0xbd9e5517	-0.07731073
182	0xbe2a4c1b	-0.16630594
183	0xbdb4b3e0	-0.08823371
184	0x3e59b1a8	0.21259177
185	0xbe2f718f	-0.17133163
186	0x3d4875e5	0.048940558
187	0xbdb2927c	-0.08719346
188	0x3e6d6fa5	0.2318712
189	0x3e4609c0	0.19339657
190	0x3c0d4fd3	0.008624989
191	0x3dc173a9	0.094458885
192	0x3f065297	0.5246977
193	0xbcca6db3	-0.024710512
194	0x3d216c51	0.03940994
195	0xbe240f90	-0.16021562
196	0xbea1eab9	-0.31624392
197	0x3dc36765	0.09541205
198	0x3ebb1365	0.36538234
199	0x3dc535fb	0.096294366
200	0xbe042509	-0.12904753
201	0xbe553942	-0.20822623
202	0xbebcfe83	-0.36912927
203	0x3bef36a1	0.0073002134
204	0x3e0f5f29	0.14001144
205	0x3eacc503	0.33744058
206	0xbd1f069d	-0.038824666
207	0x3ca964a2	0.020677868
208	0xbd6d34e1	-0.057911757
209	0xbdb0b94d	-0.08629093
210	0xbdfb3cb3	-0.12267437
211	0xbd422b0b	-0.04740433
212	0xbe6d348f	-0.23164581
213	0x3eefa613	0.46806392
214	0xbd555be6	-0.052089594
215	0x3edb1d3b	0.4279574
216	0xbbd75a73	-0.0065720617
217	0x3db1cfe2	0.086822286
218	0x3d4e797e	0.050408833
219	0x3e8454d3	0.25845966
220	0x3f01760f	0.5057077
221	0xbda92e21	-0.082607515
222	0xbe4eb4a5	-0.20186098
223	0xbe62b6d8	-0.22140062
224	0xbe265738	-0.16244209
225	0x3e556c22	0.2084203
226	0xbe6b9f3b	-0.2300996
227	0xbe33ca26	-0.17557582
228	0x3e10e825	0.14151056
229	0x3e34e823	0.17666678
230	0x3db46e83	0.08810141
231	0xbe82f728	-0.2557919
232	0x3e3b186b	0.18271033
233	0xbd4b9d27	-0.04971042
234	0xbd07121f	-0.032976266
235	0x3e0fa089	0.14026083
236	0xbe406cc9	-0.18791498
237	0x3cdad370	0.02671215
238	0x3dd36da8	0.1032365
239	0x3e2c88c2	0.16849044
240	0xbd07e644	-0.033178583
241	0x3df173b1	0.117896445
242	0xbeca41c4	-0.395033
243	0xbc6e6c61	-0.014552207
244	0xbe15e0c4	-0.14636523
245	0xbe181da8	-0.14855063
246	0xbc98eb39	-0.01866685
247	0xbcf864b1	-0.03032145
248	0xbc826929	-0.015919285
249	0x3dd3eedf	0.103482954
250	0xbcfa21fb	-0.030533781
251	0x3d9db161	0.07699848
252	0xbe3738e9	-0.17892803
253	0x3dded643	0.10880711
254	0xbe15b682	-0.14620402
255	0xbcb7f645	-0.022456298
